…
__________________________________________________________________________ Layer (type) Output Shape Param # Connected to ================================================================================================================================ VehBrand (InputLayer) [(None, 1)] 0 ________________________________________________________________________________________________________________________________ Region (InputLayer) [(None, 1)] 0 ________________________________________________________________________________________________________________________________ BrandEmb (Embedding) (None, 1, 1) 11 VehBrand[0][0] ________________________________________________________________________________________________________________________________ RegionEmb (Embedding) (None, 1, 1) 21 Region[0][0] ________________________________________________________________________________________________________________________________ Design (InputLayer) [(None, 7)] 0 ________________________________________________________________________________________________________________________________ Brand_flat (Flatten) (None, 1) 0 BrandEmb[0][0] ________________________________________________________________________________________________________________________________ Region_flat (Flatten) (None, 1) 0 RegionEmb[0][0] ________________________________________________________________________________________________________________________________ concate (Concatenate) (None, 9) 0 Design[0][0] Brand_flat[0][0] Region_flat[0][0] ________________________________________________________________________________________________________________________________ hidden1 (Dense) (None, 20) 200 concate[0][0] ________________________________________________________________________________________________________________________________ batch_normalization_1 (BatchNormalization (None, 20) 80 hidden1[0][0] ________________________________________________________________________________________________________________________________ dropout (Dropout) (None, 20) 0 batch_normalization_1[0][0] ________________________________________________________________________________________________________________________________ hidden2 (Dense) (None, 15) 315 dropout[0][0] ________________________________________________________________________________________________________________________________ batch_normalization_2 (BatchNormalization (None, 15) 60 hidden2[0][0] ________________________________________________________________________________________________________________________________ dropout_1 (Dropout) (None, 15) 0 batch_normalization_2[0][0] ________________________________________________________________________________________________________________________________ hidden3 (Dense) (None, 10) 160 dropout_1[0][0] ________________________________________________________________________________________________________________________________ batch_normalization_3 (BatchNormalization (None, 10) 40 hidden3[0][0] ________________________________________________________________________________________________________________________________ dropout_2 (Dropout) (None, 10) 0 batch_normalization_3[0][0] ________________________________________________________________________________________________________________________________ hidden4 (Dense) (None, 5) 55 dropout_2[0][0] ________________________________________________________________________________________________________________________________ batch_normalization_4 (BatchNormalization (None, 5) 20 hidden4[0][0] ________________________________________________________________________________________________________________________________ dropout_3 (Dropout) (None, 5) 0 batch_normalization_4[0][0] ________________________________________________________________________________________________________________________________ Network (Dense) (None, 1) 6 dropout_3[0][0] ________________________________________________________________________________________________________________________________ LogVol (InputLayer) [(None, 1)] 0 ________________________________________________________________________________________________________________________________ Add (Add) (None, 1) 0 Network[0][0] LogVol[0][0] ________________________________________________________________________________________________________________________________ Response (Dense) (None, 1) 2 Add[0][0] ================================================================================================================================ Total params: 970 Trainable params: 868 Non-trainable params: 102 ________________________________________________________________________________________________________________________________ 4.5 训练神经网络 训练神经网络需要注意以下几点： 初始化神经网络，将从GAM开始训练神经网络，且GAM预测部分保持不变。 当b
…
